code/training_results/Hybrid_SR/netG_epoch_1.pth (torch, 290717 bytes, 70 tensors)

block1.0.weight f4 [8, 2, 9, 9, 9]
0.003749752 -0.01412811 0.025701921 0.004594025 0.009071625 0.021952279 0.019269014 -0.025818944
-0.007315878 0.015735988 0.017609617 0.01535252 -0.025906118 0.0058712712 -0.022239938 -0.0058441474
-0.008682853 -0.0074338205 -0.0075211767 0.022097114 0.0009238058 0.019546868 -0.01009805 -0.021652434
0.0112415785 -0.021843119 -0.001557685 0.0087298425 -0.005877334 -0.013713235 -0.009014611 0.007076128
-0.018156258 -0.018979933 0.004839576 0.017618967 0.0131176505 -0.005241179 0.0018835707 -0.012847502
-0.017292695 -0.0112810815 -0.006573138 -0.018382233 -0.009652818 -0.014379108 -0.021894744 -0.007036544
-0.016846398 0.025476858 0.017186929 -0.0024118111 0.00060221914 0.021201396 0.0106036505 -0.009924255
0.021428766 0.011356406 0.022155121 0.016995871 -0.024485841 0.0057425206 -0.018084921 0.011635986
0.008091639 0.02578566 0.012581586 0.014635605 -0.019226165 0.021031817 -0.009472909 0.0064702965
-0.017935887 0.008221395 -0.013091776 -0.005040838 0.006098062 -0.024808565 0.0072534913 -0.023143668
0.022902878 -0.017988648 -0.014061705 0.02891655 0.033657588 0.0020442915 0.022491053 -0.03042775
-0.042439118 0.007087769 -0.030689204 -0.028154891 0.010557488 0.012103112 0.0077430066 -0.024963785
0.010908234 -0.023948709 -0.0139421495 -0.008736087 0.00080012286 -0.029456472 0.009363898 -0.006730804
0.0068555614 -0.009681396 -0.022040086 0.0007259813 0.008762981 0.018490855 -0.019338196 -0.021326382
-0.0061373147 0.009057188 0.008808454 0.0012284246 -0.024577156 -0.033792417 -0.009569729 -0.026705233
0.011204804 -0.008879484 -0.016609116 -0.00917329 -0.049093317 -0.05272252 0.019790526 0.00979803
-0.008858627 -0.0123411985 -0.0081976 -0.027519621 -0.016241154 -0.027612438 0.02300324 -0.00700698
-0.004461479 -0.006346774 0.012722427 0.007773447 0.04367566 0.030596176 -0.009844419 0.026943743
0.015772527 0.00035371308 -0.014884471 0.015512071 0.026515076 -0.0064038737 0.0059960866 0.045219574
0.0085114725 -0.012185573 0.03598439 0.024677517 -0.00037317668 -0.010571005 -0.003766592 -0.001363811
0.029926812 0.00477607 -0.00027105474 -0.009343645 -0.023962386 0.03029938 -0.024964493 0.02104681
0.007065668 0.02236171 0.0167069 -0.0073550716 -0.025967583 0.0013106534 -0.03045848 0.026353315
-0.03638626 -0.02071308 0.0037994427 -0.016588364 0.004647583 -0.015087721 -0.02772464 -0.011651501
-0.025941558 0.015132039 -0.010411226 -0.010130991 -0.013629293 -0.01327011 -0.0179614 -0.018245174
-0.0047174105 -0.0042025666 -0.03634986 0.0039118133 -0.008554102 0.017720453 -0.011277236 0.026935969
0.0126528675 -0.021062605 -0.0046961633 -0.016457029 -0.03989386 -0.040336233 -0.0070589124 0.0109310215
0.0031990148 0.03621006 -0.022632832 0.014887203 -0.020405507 -0.028647434 -0.006846468 -0.016302314
-0.01042312 0.002252713 0.0069609997 0.028035618 -0.02369615 -0.0041313968 -0.020981897 0.00084225443
0.0155227445 -0.029312775 -0.03840381 -0.02355101 -0.0063231876 0.0014008657 -0.04123563 0.007990674
0.0049410285 -0.0024756633 -0.028991606 -0.020208627 1.8323934e-05 -0.0011959401 -0.009520205 0.022328097
-0.022619035 -0.002130093 -0.0065770643 -0.0073968987 -0.007186532 0.009501795 0.03691266 0.048866197
0.019893344 -0.01001913 -0.010888086 -0.01933711 0.009986815 -0.00186397 0.009207099 -0.036609627
00000000: 66be 753b 9779 67bc d68c d23c 7a89 963b
00000010: 27a1 143c 44d5 b33c 0dda 9d3c 4082 d3bc
00000020: 08ba efbb c2e8 803c 0b42 903c 2389 7b3c
00000030: 1139 d4bc cb63 c03b 8830 b6bc 4380 bfbb
00000040: 8642 0ebc 6897 f3bb 3474 f6bb 0205 b53c
00000050: 8f2b 723a c120 a03c 4b72 25bc 7260 b1bc
00000060: 992e 383c 57f0 b2bc 3c2b ccba 9d07 0f3c
00000070: a796 c0bb 7aad 60bc 05b2 13bc ddde e73b
00000080: 6fbc 94bc ce7b 9bbc 4e95 9e3b a755 903c
00000090: 6aeb 563c 32be abbb 25e2 f63a 547e 52bc
000000a0: 69a9 8dbc 49d4 38bc 7a63 d7bb 5696 96bc
000000b0: da26 1ebc 5a96 6bbc 9b5c b3bc cf92 e6bb
000000c0: 7501 8abc d8b4 d03c 9acb 8c3c 7a0f 1ebb
000000d0: 3ede 1d3a 8dae ad3c efba 2d3c 5899 22bc
000000e0: 618b af3c 3810 3a3c a87e b53c ed3a 8b3c
000000f0: 8896 c8bc c12b bc3b d426 94bc dda4 3e3c
00000100: cb92 043c 733c d33c ff22 4e3c 2dca 6f3c
00000110: 3180 9dbc eb4a ac3c 4334 1bbc c804 d43b
00000120: 48ee 92bc 08b3 063c e37e 56bc 9d2d a5bb
00000130: 40d2 c73b 553b cbbc b2ae ed3b ca97 bdbc
00000140: d19e bb3c ee5c 93bc 1163 66bc 67e2 ec3c
00000150: 8adc 093d 85f9 053b 283f b83c 9e43 f9bc
00000160: a4d4 2dbd 8440 e83b ed67 fbbc 16a5 e6bc
00000170: 50f9 2c3c 224c 463c 0cb9 fd3b da80 ccbc
00000180: 73b8 323c 1530 c4bc 9d6d 64bc ce21 0fbc
00000190: 56bf 513a b34e f1bc 096b 193c 148e dcbb
000001a0: 9ea4 e03b b89e 1ebc 698d b4bc c84f 3e3a
000001b0: 9b92 0f3c 227a 973c 236b 9ebc aab4 aebc
000001c0: 871b c9bb 9a64 143c 5551 103c 1703 a13a
000001d0: 0856 c9bc eb69 0abd 5aca 1cbc efc4 dabc
000001e0: 5b94 373c 417b 11bc d70f 88bc 914b 16bc
000001f0: 1316 49bd 92f3 57bd be1f a23c eb87 203c
00000200: c623 11bc bd32 4abc 3a4f 06bc d470 e1bc
00000210: 2b0c 85bc 7b33 e2bc 4a71 bc3c cf9a e5bb
00000220: 9931 92bb 99f8 cfbb ba71 503c 66b8 fe3b
00000230: 40e5 323d d5a4 fa3c 7c4a 21bc 20b9 dc3c
00000240: 6335 813c 9172 b939 ffdd 73bc 5726 7e3c
00000250: 2536 d93c 96d7 d1bb d27a c43b 2938 393d
00000260: b473 0b3c ffa5 47bc 5e64 133d 8128 ca3c
00000270: eda6 c3b9 0232 2dbc edd8 76bb e7c1 b2ba
00000280: 1329 f53c 9480 9c3b 5a1c 8eb9 1616 19bc
00000290: c44c c4bc 6836 f83c 5682 ccbc 5c6a ac3c
000002a0: 1e87 e73b e82f b73c e9dc 883c d002 f1bb
000002b0: f8b9 d4bc 3bca ab3a 1084 f9bc e8e2 d73c
000002c0: c209 15bd 7aae a9bc 1200 793b 52e4 87bc
000002d0: c04a 983b 7d32 77bc c91e e3bc f0e5 3ebc
000002e0: 6483 d4bc 5fec 773c d993 2abc 75fc 25bc
000002f0: 664d 5fbc e06a 59bc c923 93bc e776 95bc
00000300: 8294 9abb afb5 89bb 97e3 14bd ab2e 803b
00000310: 8126 0cbc 7c2a 913c 28c4 38bc d2a8 dc3c
00000320: f94d 4f3c 7c8b acbc 46e2 99bb e4d0 86bc
00000330: bf67 23bd 9b37 25bd 734e e7bb 0718 333c
00000340: 90a6 513b 0051 143d 7d68 b9bc 75e9 733c
00000350: 7329 a7bc 06ae eabc 5658 e0bb 6e8c 85bc
00000360: bcc5 2abc 41a2 133b 1919 e43b f4aa e53c
00000370: 6e1e c2bc ab60 87bb 3ae2 abbc bdca 5c3a
00000380: 1c53 7e3c 5821 f0bc 504d 1dbd 0cee c0bc
00000390: be32 cfbb 419d b73a b1e6 28bd 51eb 023c
000003a0: 5ae8 a13b bd3e 22bb ce7f edbc 908c a5bc
000003b0: 59b6 9937 17c1 9cba a2fa 1bbc 6ae9 b63c
000003c0: 8e4b b9bc 0899 0bbb 6a84 d7bb af61 f2bb
000003d0: 007d ebbb 6bad 1b3c bb31 173d ec27 483d
000003e0: 5ef7 a23c 4727 24bc f163 32bc dc68 9ebc
000003f0: bd9f 233c 7450 f4ba 5fd9 163c faf3 15bd

block1.0.bias f4 [8]
0.015942387 0.03752935 0.03736022 0.022524111 0.035398133 0.03240161 0.044199545 -0.011418128
00000000: 9c99 823c 60b8 193d 0807 193d 7c84 b83c
00000010: a2fd 103d 8db7 043d 950a 353d 1a13 3bbc

block2.conv1.weight f4 [8, 8, 3, 3, 3]
-0.044758637 -0.049061153 0.061094705 -0.028278338 0.033120275 -0.033973746 0.012361735 -0.049333926
-0.011680398 0.056195714 -0.04738579 -0.025784679 0.012956006 0.027271004 -0.06553114 0.012610149
-0.016847901 -0.036117632 -0.0632334 0.05155847 0.00012192059 0.005370765 -0.014814955 -0.07137231
0.051370345 -0.05992501 0.03915462 -0.03675491 0.020773707 0.028934684 -0.006734873 -0.016048666
-0.048747115 -0.022402247 0.016310366 -0.02702303 -0.03255359 -0.009739935 0.036769472 -0.011455912
0.06773854 -0.0060504195 0.038947772 0.058289297 -0.01862799 0.03623042 0.053271808 0.028639391
-0.008410118 -0.049130097 0.048393693 0.02367807 -0.016675709 -0.009314694 0.015288882 0.040663153
-0.030966243 0.06949832 -0.023352984 -0.0028199258 0.05098197 -0.065187365 0.06517979 0.0045889495
-0.032367785 -0.07119574 -0.013263058 0.037886593 0.0037737873 0.009585511 0.047834042 -0.022050096
0.0050291964 0.01768882 0.039639775 0.015782814 0.00089574757 -0.039609324 0.012034693 0.007547133
0.039945286 0.057619765 0.055651885 -0.004594185 -0.00045109872 -0.011574304 -0.018287862 -0.058055677
0.056057822 0.04370308 0.00303703 0.0065546227 0.055570953 0.0012831007 0.0059977737 -0.013749288
0.005528272 -0.01223853 -0.035378106 0.05310575 0.010506239 0.018348895 -0.019878197 -0.06312414
0.023620978 -0.048406433 -0.06608865 0.0030968955 0.036319565 -0.074825205 0.0037123656 -0.033248812
0.037983686 -0.01798807 -0.03980328 -0.05508053 -0.025757752 -0.04242269 0.07483815 0.054947678
0.024293795 -0.034201324 0.012825272 0.04955664 -0.04380251 -0.0036361015 -0.03576839 0.06530994
-0.05799701 0.014081742 -0.017231094 0.030556774 0.02370347 0.038034532 -0.031073177 0.046436008
0.017593227 0.053339243 0.052318715 0.06076605 -0.054245546 0.05279544 -0.02755703 -0.006417352
-0.012013364 0.055268917 -0.07705718 0.057788968 -0.06634866 -0.02306082 0.05351746 0.03683894
0.03876657 0.05060752 -0.07153534 0.04519882 -0.07568787 0.026976949 -0.066191904 -0.06597649
-0.051972706 -0.00033906187 -0.04724733 0.028624047 -0.013425438 0.0079771215 0.044917647 -0.026238166
0.04107135 0.047090117 -0.045886576 0.029177856 0.01832558 -0.05314158 0.031780165 0.046075895
-0.009168369 -0.019786894 0.048406716 -0.068049744 0.0030587167 -0.056490555 -0.030391699 -0.05417416
0.04339642 -0.0028944702 0.06161041 -0.011453099 -0.058462206 0.043998394 -0.032258186 0.009833909
0.0647934 0.05397418 -0.020224685 0.062394835 -0.037723362 0.01233326 -0.009953223 0.0105290245
0.0040958337 -0.0006115507 -0.047311984 0.008571443 -0.020400468 0.005291253 0.014248312 0.052958835
-0.030017892 -0.015463569 -0.04112903 -0.025870293 0.016196944 -0.035492763 -0.008763536 0.023603529
-0.04531054 -0.060459513 -0.041807976 -0.040507995 0.045580387 0.03587452 -0.017759286 0.02723111
-0.067235306 -0.076575935 0.016825654 0.0015109516 0.037373852 -0.032083247 -0.027913839 -0.008932259
0.064216755 -0.059357617 0.010908683 -0.009513506 -0.019373717 -0.06566456 -0.058983482 0.066744484
-0.06668121 -0.0727615 0.051649656 -0.050626285 -0.03638191 0.03805904 -0.028654693 -0.046101198
0.042631403 0.038627397 -0.06608072 -0.058284048 -0.037353553 -0.059655204 -0.0037178257 -0.03241257
00000000: d554 37bd 59f4 48bd 713e 7a3d f9a7 e7bc
00000010: 20a9 073d 0e28 0bbd e088 4a3c 5f12 4abd
00000020: 245f 3fbc 7a2d 663d 9a17 42bd 643a d3bc
00000030: 6e45 543c 7167 df3c 3135 86bd cc9a 4e3c
00000040: 9c04 8abc 15f0 13bd 8380 81bd f92e 533d
00000050: 9eaf ff38 3efd af3b 6dba 72bc a52b 92bd
00000060: b669 523d ed73 75bd 9860 203d 518c 16bd
00000070: 9f2d aa3c 6e08 ed3c 36b0 dcbb 7e78 83bc
00000080: 0eab 47bd eb84 b7bc 519d 853c 675f ddbc
00000090: ea56 05bd 4094 1fbc 969b 163d 94b1 3bbc
000000a0: 81ba 8a3d 9942 c6bb b387 1f3d c2c0 6e3d
000000b0: ba99 98bc 5966 143d 8a33 5a3d 289d ea3c
000000c0: 97ca 09bc a43c 49bd 7738 463d 83f8 c13c
000000d0: 7f9b 88bc a99c 18bc 387e 7a3c 688e 263d
000000e0: ebac fdbc 2355 8e3d c24e bfbc 81ce 38bb
000000f0: 78d2 503d f480 85bd fb7c 853d e65e 963b
00000100: 1594 04bd 12cf 91bd 4c4d 59bc f92e 1b3d
00000110: a551 773b 8c0c 1d3c a1ed 433d 67a2 b4bc
00000120: f5cb a43b 25e8 903c 515d 223d f64a 813c
00000130: 9ad0 6a3a 633d 22bd 292d 453c f14d f73b
00000140: ab9d 233d b402 6c3d 3bf3 633d d18a 96bb
00000150: 7281 ecb9 26a2 3dbc 6dd0 95bc cacb 6dbd
00000160: e39c 653d 0002 333d e908 473b 29c8 d63b
00000170: 5e9e 633d b72d a83a f988 c43b b244 61bc
00000180: 8226 b53b 1e84 48bc a2e8 10bd 6a85 593d
00000190: 5c22 2c3c 6c50 963c 9ad7 a2bc 3b47 81bd
000001a0: c880 c13c d345 46bd 7c59 87bd 49f5 4a3b
000001b0: d3c3 143d f53d 99bd 294b 733b e82f 08bd
000001c0: c894 1b3d b85b 93bc c408 23bd 1f9c 61bd
000001d0: ec01 d3bc 6ac3 2dbd be44 993d d110 613d
000001e0: c803 c73c b016 0cbd 1721 523c e7fb 4a3d
000001f0: 436a 33bd a94b 6ebb e081 12bd 38c1 853d
00000200: 468e 6dbd 1bb7 663c 3928 8dbc 3352 fa3c
00000210: c82d c23c 19ca 1b3d 2d8d febc af33 3e3d
00000220: ac1f 903c 407a 5a3d 264c 563d d2e5 783d
00000230: 9430 5ebd 0840 583d 48bf e1bc a648 d2bb
00000240: b3d3 44bc a961 623d 28d0 9dbd 20b4 6c3d
00000250: cee1 87bd 0bea bcbc 2035 5b3d 6ee4 163d
00000260: b2c9 1e3d d549 4f3d 1f81 92bd 6622 393d
00000270: 3e02 9bbd c3fe dc3c 9f8f 87bd af1e 87bd
00000280: 55e1 54bd 1dc4 b1b9 6b86 41bd fa7c ea3c
00000290: 5ef6 5bbc 79b2 023c 91fb 373d 6cf1 d6bc
000002a0: 6f3a 283d 91e1 403d 90f3 3bbd 6606 ef3c
000002b0: 871f 963c fcaa 59bd eb2b 023d 14ba 3c3d
000002c0: ed36 16bc 2018 a2bc 1f46 463d aa5d 8bbd
000002d0: c074 483b a462 67bd 03f8 f8bc b9e5 5dbd
000002e0: 72c0 313d 27b1 3dbb 335b 7c3d c7a5 3bbc
000002f0: 1176 6fbd a937 343d 2921 04bd 671e 213c
00000300: 67b2 843d 0814 5d3d 3dae a5bc ba91 7f3d
00000310: d083 1abd 7111 4a3c d812 23bc ee81 2c3c
00000320: 5836 863b 7950 20ba 36ca 41bd 3d6f 0c3c
00000330: e21e a7bc 3f62 ad3b c171 693c 5deb 583d
00000340: 15e8 f5bc e95a 7dbc ea76 28bd f0ed d3bc
00000350: 74af 843c dc60 11bd ef94 0fbc 305c c13c
00000360: 8b97 39bd 65a4 77bd d73e 2bbd b6eb 25bd
00000370: 80b2 3a3d 29f1 123d ec7b 91bc c713 df3c
00000380: aab2 89bd d8d3 9cbd f4d5 893c 1f0b c63a
00000390: 5315 193d b969 03bd 90ab e4bc 9c58 12bc
000003a0: 1384 833d f920 73bd 55ba 323c 89de 1bbc
000003b0: a1b5 9ebc 247b 86bd aa98 71bd 55b1 883d
000003c0: 2990 88bd fb03 95bd 978e 533d 825d 4fbd
000003d0: 3305 15bd cce3 1b3d 3fbd eabc 9cd4 3cbd
000003e0: 449e 2e3d c337 1e3d 5455 87bd 41bb 6ebd
000003f0: 0a00 19bd 0459 74bd c4a6 73bb 0bc3 04bd

block2.conv1.bias f4 [8]
0.042954005 -0.04091649 0.0003612592 0.03089214 -0.02379683 -0.0028399094 -0.017103244 -0.012667156
00000000: 8af0 2f3d 0d98 27bd 6467 bd39 8311 fd3c
00000010: 92f1 c2bc c61d 3abb 1a1c 8cbc e789 4fbc

block2.bn1.weight f4 [8]
0.98623556 1.0085032 1.0059444 1.0078949 0.9947538 1.002176 1.0067229 0.985763
00000000: ef79 7c3f a216 813f c9c2 803f b302 813f
00000010: 2fa8 7e3f 4e47 803f 4cdc 803f f75a 7c3f

block2.bn1.bias f4 [8]
-0.010439951 0.005096265 0.009999466 0.005652615 -0.0071424893 0.0010848555 0.020002749 -0.010933882
00000000: 540c 2bbc 92fe a63b cdd4 233c 9239 b93b
00000010: 8b0b eabb b631 8e3a cedc a33c 0624 33bc

block2.bn1.running_mean f4 [8]
0.108710274 -0.30802998 0.21864234 0.1301353 -0.08403952 0.013971175 0.15759838 -0.1605364
00000000: 7ea3 de3d 1bb6 9dbe c7e3 5f3e 3042 053e
00000010: e91c acbd 5be7 643c 7861 213e a763 24be

block2.bn1.running_var f4 [8]
0.12289924 0.24840823 0.30891 0.2625858 0.07922329 0.27062243 0.12398861 0.04791295
00000000: 99b2 fb3d ba5e 7e3e 7429 9e3e a571 863e
00000010: d23f a23d 068f 8a3e beed fd3d 5f40 443d

block2.conv2.weight f4 [8, 8, 3, 3, 3]
0.015192766 -0.047303855 -0.05496715 -0.06735261 -0.03481046 -0.019766582 -0.01763017 -0.059777286
-0.022389943 0.074800834 0.041347228 0.05303489 -0.04666472 0.013528725 0.022585787 -0.047922134
-0.045152754 -0.0069778827 -0.029617485 0.01350887 -0.060880315 0.05068121 0.027084297 -0.03152606
-0.00940602 -0.0053241537 0.06994063 0.06551009 0.0022905872 -0.03313343 0.026394414 0.003459507
0.007879442 -0.009228683 0.0002882209 0.06591144 -0.05371118 -0.028012954 0.032537553 0.043246835
-0.0497056 -0.05223375 -0.038048334 -0.035286907 0.013390425 -0.014261583 -0.022964483 0.041917194
-0.017520022 0.0005803979 -0.060212675 0.01333743 0.05530856 -0.039308127 -0.01178603 0.010918196
-0.034741275 -0.058759086 0.031389408 0.06256382 -0.03683303 0.012158573 -0.054077324 -0.022440871
-0.034856312 0.05289818 0.043387577 -0.0222774 0.03178206 0.027224548 0.03273571 0.017368875
0.023599207 0.029666094 0.060091406 -0.0066050673 0.024046345 -0.039562207 0.036598817 0.004435512
-0.057710428 0.0103568435 0.058763884 0.07560752 -0.04708377 0.068694055 0.045521274 0.00061630004
-0.008782733 -0.020227967 0.037369363 -0.0010824184 0.046151653 -0.0017666399 -0.052193828 -0.017871588
-0.03152882 -0.008869451 0.061495837 -0.06787428 0.050952543 -0.022424627 0.053227235 0.054591145
-0.035437677 0.0030253187 0.043482255 -0.015012854 -0.06529764 -0.059639968 -0.025912857 0.06637766
0.05971384 -0.039293632 -0.05014582 -0.0113 -0.028667573 0.028991869 0.050987806 0.04602384
0.050806433 0.06242917 0.01580087 -0.0068770247 -0.03879424 0.030468306 -0.0066951336 -0.038051933
0.055001352 -0.017519621 0.039098132 -0.055431794 -0.0043467754 -0.015054646 -0.036276493 0.06440051
0.055768467 -0.053163126 0.052556783 -0.0061683743 -0.010981856 0.03379016 0.031057542 -0.0073227966
0.034455735 -0.035066098 0.008398859 0.08087698 0.0678025 -0.034751657 0.042651057 -0.04421488
-0.027379572 -0.0044159954 -0.038288143 0.0522807 0.04448306 0.0025596062 0.026788827 0.004381487
0.068437435 -0.053964864 0.015894134 -0.028116224 0.041351464 0.042437553 -0.004006357 -0.041203003
0.041065443 -0.049086377 -0.07243392 -0.015822638 0.04713608 -0.014468325 -0.058040842 0.009083156
0.068227835 -0.046017345 0.022116182 0.034236453 -0.061588693 -0.018977225 0.009546004 -0.061133794
0.021379042 -0.04107141 -0.05406294 0.0406996 -0.049854092 -0.042232268 -0.046266183 0.011472737
0.057486966 0.048585046 -0.07066535 -0.023487847 0.010694887 0.029897707 0.018363804 0.015376555
0.0018457819 0.045210328 -0.06621763 0.057538774 0.017933035 -0.031627595 -0.0058296593 -0.041431297
-0.0030399808 -0.03221818 -0.036850665 -0.009392124 -0.042699754 -0.024090732 0.044179022 -0.031667437
-0.019267283 -0.023220135 -0.056789353 -0.05646698 0.023972573 -0.016747052 0.025847323 0.06815384
-0.05749298 -0.036403093 0.03580476 -0.033420984 0.082222395 -0.054965723 -0.02687772 0.008638303
0.012863471 0.07102463 0.033946488 0.029213108 0.07454714 0.059259914 -0.070213325 0.04181163
-0.013633274 -0.06231974 0.03739041 -0.027806891 -0.05269976 0.061302245 0.029699938 -0.026429694
-0.02246225 -0.020924525 -0.03832927 0.063274495 0.03840592 0.015549681 0.0007250466 -0.031746328
00000000: 14eb 783c b0c1 41bd 3c25 61bd 2af0 89bd
00000010: 6a95 0ebd 87ed a1bc 256d 90bc 07d9 74bd
00000020: 1d6b b7bc 2e31 993d b65b 293d 1d3b 593d
00000030: 8123 3fbd 96a7 5d3c d405 b93c 004a 44bd
00000040: 18f2 38bd b9a6 e4bb 5ea0 f2bc 4f54 5d3c
00000050: a35d 79bd 1a97 4f3d e3df dd3c 7821 01bd
00000060: b51b 1abc 3d76 aebb 083d 8f3d 272a 863d
00000070: ad1d 163b ebb6 07bd 1939 d83c e5b8 623b
00000080: c618 013c e733 17bc 5b1c 9739 94fc 863d
00000090: 4100 5cbd 6c7b e5bc 1946 053d 9823 313d
000000a0: 1998 4bbd 0ef3 55bd 92d8 1bbd 0189 10bd
000000b0: 8363 5b3c 6aa9 69bc 0320 bcbc 5db1 2b3d
000000c0: 2686 8fbc d825 183a 91a1 76bd 3c85 5a3c
000000d0: 3b8b 623d 8f01 21bd 311a 41bc 3ce2 323c
000000e0: de4c 0ebd 5ead 70bd 2e92 003d 7621 803d
000000f0: 3bde 16bd c034 473c 2f80 5dbd ebd5 b7bc
00000100: 7ec5 0ebd c3ab 583d 2cb7 313d 187f b6bc
00000110: e82d 023d 0406 df3c e115 063d 2c49 8e3c
00000120: 2053 c13c 4f06 f33c 6822 763d 526f d8bb
00000130: d7fc c43c fb0b 22bd a4e8 153d c557 913b
00000140: c561 6cbd c0af 293c 66b2 703d 1ed8 9a3d
00000150: e9da 40bd 78af 8c3d 8474 3a3d 328f 213a
00000160: 74e5 0fbc 1fb5 a5bc 9e10 193d efdf 8dba
00000170: 8409 3d3d 998e e7ba 32c9 55bd 7067 92bc
00000180: 5d24 01bd 2c51 11bc 0fe3 7b3d ac01 8bbd
00000190: 9db3 503d dab3 b7bc cd04 5a3d f79a 5f3d
000001a0: 1927 11bd 6d44 463b 731a 323d 79f8 75bc
000001b0: c5ba 85bd 0a49 74bd 3347 d4bc 03f1 873d
000001c0: 8096 743d 5cf2 20bd b465 4dbd a323 39bc
000001d0: 42d8 eabc 5b80 ed3c 97d8 503d 7e83 3c3d
000001e0: 681a 503d bbb5 7f3d d370 813c aa58 e1bb
000001f0: b6e6 1ebd ab98 f93c da62 dbbb 58dc 1bbd
00000200: 1949 613d 4f85 8fbc 5d25 203d 730c 63bd
00000210: 656f 8ebb c3a7 76bc a996 14bd 6ae4 833d
00000220: 7a6d 643d 94c1 59bd c845 573d 1320 cabb
00000230: 3eed 33bc 8d67 0a3d 636c fe3c 12f4 efbb
00000240: 7521 0d3d 78a1 0fbd 5e9b 093c d5a2 a53d
00000250: 0adc 8a3d c157 0ebd e0b2 2e3d a91a 35bd
00000260: 204b e0bc 0eb4 90bb 07d4 1cbd 4a24 563d
00000270: de33 363d 11bf 273b 3e74 db3c 9492 8f3b
00000280: ed28 8c3d 430a 5dbd 6a34 823c ff53 e6bc
00000290: 2760 293d 00d3 2d3d c247 83bb 7bc4 28bd
000002a0: 3d34 283d cc0e 49bd 3c58 94bd 7a9e 81bc
000002b0: c311 413d 8e0c 6dbc 3cbc 6dbd 84d1 143c
000002c0: 09bb 8b3d af7c 3cbd ff2c b53c 863b 0c3d
000002d0: 6d44 7cbd 2076 9bbc d866 1c3c 6e67 7abd
000002e0: 1a23 af3c 7f3a 28bd 1a71 5dbd a0b4 263d
000002f0: ce33 4cbd befb 2cbd 9c81 3dbd 26f8 3b3c
00000300: 7477 6b3d 1d01 473d ffb8 90bd 9669 c0bc
00000310: 9b39 2f3c 09ec f43c b06f 963c f2ed 7b3c
00000320: 2aee f13a 772e 393d 1c9d 87bd c7ad 6b3d
00000330: 4de8 923c f08b 01bd ba06 bfbb ddb3 29bd
00000340: 6a3a 47bb 36f7 03bd b9f0 16bd 6ce1 19bc
00000350: f0e5 2ebd ed59 c5bc 10f5 343d b7b5 01bd
00000360: 6cd6 9dbc 2738 bebc f49b 68bd ec49 67bd
00000370: 2162 c43c 1d31 89bc c4bd d33c 3e94 8b3d
00000380: c27d 6bbd 691b 15bd 03a8 123d 71e4 08bd
00000390: 3764 a83d bd23 61bd aa2e dcbc ab87 0d3c
000003a0: 4fc1 523c 5c75 913d 790b 0b3d 5450 ef3c
000003b0: 2cac 983d 86ba 723d 01cc 8fbd ac42 2b3d
000003c0: 185e 5fbc fc42 7fbd b026 193d 47cb e3bc
000003d0: b4db 57bd 1018 7b3d 494d f33c 1683 d8bc
000003e0: c102 b8bc e969 abbc 27ff 1cbd 0f96 813d
000003f0: 874f 1d3d 17c4 7e3c 0e11 3e3a 7008 02bd

block2.conv2.bias f4 [8]
-0.025078641 0.047633212 -0.006882157 -0.035012536 -0.043794766 -0.01630101 0.051063992 -0.023150496
00000000: b971 cdbc 0b1b 433d b883 e1bb 4e69 0fbd
00000010: 2462 33bd b289 85bc 7a28 513d 1ca6 bdbc

block2.bn2.weight f4 [8]
0.9987275 1.0078173 0.99497116 0.99832726 0.9992638 1.0170279 1.0036469 1.0028272
00000000: 9bac 7f3f 2800 813f 6eb6 7e3f 6092 7f3f
00000010: c1cf 7f3f f82d 823f 8077 803f a45c 803f

block2.bn2.bias f4 [8]
-0.007403327 -0.004640889 -0.011117576 0.014917821 -0.0025796215 -0.002028524 0.007452479 -0.0053751795
00000000: 9c97 f2bb 9912 98bb 7e26 36bc e069 743c
00000010: de0e 29bb fcf0 04bb ed33 f43b 4622 b0bb

block2.bn2.running_mean f4 [8]
0.13535285 -0.058616623 0.08223359 -0.03063058 -0.32504526 0.06635688 0.11306808 0.1802412
00000000: f099 0a3e fc17 70bd 166a a83d fbec fabc
00000010: 556c a6be 1ee6 873d 3d90 e73d 2691 383e

block2.bn2.running_var f4 [8]
0.70204043 0.2602905 0.39091277 0.42021176 0.23060177 0.3018671 0.21479811 0.34820053
00000000: ecb8 333f cc44 853e b825 c83e ff25 d73e
00000010: df22 6c3e 538e 9a3e 09f4 5b3e 5747 b23e

block3.conv1.weight f4 [8, 8, 3, 3, 3]
0.02135467 -0.01905574 -0.033856068 0.005762058 -0.008122834 -0.024214596 0.01695151 0.044279166
0.06895107 -0.034171294 -0.0228563 -0.023134325 -0.05447304 -0.04849738 0.052264433 0.057393298
-0.048745386 -0.03851849 -0.0020168086 0.05229079 -0.02252236 0.051699717 -0.04442961 -0.02616142
0.030702682 -0.018428009 -0.04218296 0.059960213 0.058237564 -0.02270606 -0.013998066 -0.045892924
-0.0021279783 0.017903874 -0.050646387 0.0024664525 -0.028963147 0.06996476 0.049822137 0.0059900926
0.032155905 0.0028896038 0.0041136225 -0.037723698 -0.050519057 0.041761797 0.053865355 0.022733012
-0.06208176 -0.009180308 -0.040775646 -0.038254738 -0.039766934 -0.042058565 -0.06614347 -0.023588859
0.029966902 -0.027898263 -0.04473627 0.059287712 -0.029249614 0.009953942 0.030762354 0.041934244
-0.04080968 -0.048335433 0.03816264 -0.02773655 0.041889127 0.05982689 -0.04922156 0.02544106
-0.03666136 -0.046865378 -0.054376975 0.06802467 0.043291535 -0.01235592 -0.028308291 0.033982057
0.01738591 0.011060736 0.0012674107 -0.05202917 -0.019699309 0.004795058 -0.03785875 0.027373584
0.02348382 0.030114284 0.038525693 0.04725124 -0.027318273 0.032924045 -0.014565527 0.061743367
-0.01986719 -0.0024545484 -0.05049904 0.06033432 -0.008705234 -0.022225413 0.014445922 0.06553672
0.02132349 0.06716891 0.039071523 0.06441579 0.023016954 0.06896072 -0.05969263 0.020090967
0.07781346 0.04288183 -0.065887004 0.014210415 0.052548144 -0.062506005 0.033318467 0.035085183
-0.0392836 -0.034980945 -0.0017535934 -0.05026692 0.0015750258 -0.016068311 0.014702765 0.044416003
-0.053031474 -0.04398727 -0.04367437 0.00066725933 -0.05444587 -0.06501588 0.04386758 -0.051846344
-0.056762885 0.044577494 0.026602669 -0.060852647 0.003217925 -0.015286405 -0.028489573 -0.073935196
0.067057036 -0.017472051 -0.036106028 -0.019542867 -0.060634356 0.03234652 0.057771746 0.029920593
0.009633975 0.03422479 -0.024243739 -0.029346133 -0.045044072 -0.035537343 0.06191451 -0.0066396235
-0.01746205 -0.05136961 -0.053291798 0.044813655 0.028736996 0.029656377 0.007922189 0.04761989
0.06817793 -0.02253135 -0.04273359 -0.028811706 -0.05132213 -0.058406692 -0.042788204 0.043588564
0.06296762 0.051560912 -0.024195146 -0.045601945 0.012437288 0.034674853 -0.030200668 0.015154518
0.014220974 -0.0072590397 0.029900447 -0.020176608 0.0023802018 0.031238792 -0.02001059 0.047571685
-0.0010988839 0.03313323 -0.0176913 0.052693706 -0.033323262 -0.0656786 -0.03499063 -0.012968283
0.02835093 0.010010988 0.04471353 -0.0021458562 -0.03043781 0.01553212 -0.050449587 0.011388437
0.05704195 0.03663924 -0.0069697406 -0.042746466 -0.04521939 0.009171848 0.04077169 0.001996935
0.044832803 0.03576241 0.03669993 0.047700346 0.064370826 -0.027145673 0.03365764 0.044133402
0.0027730807 0.01370551 -0.014769405 0.016763495 -0.038952433 -0.009581374 -0.058399126 0.04079431
-0.07390537 0.0065507744 -0.006920657 -0.06125043 0.022137426 -0.033926748 0.0026984522 0.022099325
-0.03275583 0.03756513 0.06705857 -0.013477667 -0.013730373 -0.0135259805 0.06422222 -0.054169755
-0.018151471 0.056786787 0.011893608 0.009941846 0.019725882 -0.045736987 0.037869986 0.03188822
00000000: fdef ae3c c91a 9cbc a9ac 0abd a5cf bc3b
00000010: a315 05bc b05d c6bc e5dd 8a3c 125e 353d
00000020: 3836 8d3d 33f7 0bbd 233d bbbc 3284 bdbc
00000030: 1f1f 5fbd 30a5 46bd 3b13 563d 3c15 6b3d
00000040: 3ea9 47bd 90c5 1dbd 6f2c 04bb de2e 563d
00000050: d080 b8bc 15c3 533d d3fb 35bd 7950 d6bc
00000060: 3184 fb3c 56f6 96bc 0ac8 2cbd d798 753d
00000070: 838a 6e3d 0f02 babc 2558 65bc 38fa 3bbd
00000080: 8d75 0bbb 25ab 923c 9672 4fbd 35a4 213b
00000090: 1f44 edbc af49 8f3d 4c12 4c3d 8a48 c43b
000000a0: e9b5 033d 825f 3d3b 91cb 863b 2a84 1abd
000000b0: 12ed 4ebd 6b0e 2b3d eba1 5c3d 953a ba3c
000000c0: 7249 7ebd 0169 16bc 5d04 27bd 00b1 1cbd
000000d0: a7e2 22bd 9a45 2cbd 3a76 87bd 6c3d c1bc
000000e0: 267d f53c e68a e4bc 613d 37bd acd7 723d
000000f0: e39c efbc dc15 233c 5501 fc3c 3ec3 2b3d
00000100: 0d28 27bd 60fb 45bd 6e50 1c3d c337 e3bc
00000110: ef93 2b3d 0a0d 753d 8c9c 49bd c569 d03c
00000120: 392a 16bd e9f5 3fbd 64ba 5ebd 8550 8b3d
00000130: 7752 313d 7c70 4abc cae6 e7bc c530 0b3d
00000140: e56c 8e3c 1738 353c 3f1f a63a 8a1c 55bd
00000150: 7260 a1bc dd1f 9d3b c711 1bbd 913e e03c
00000160: 2461 c03c 3bb2 f63c 1ecd 1d3d 848a 413d
00000170: 92ca dfbc 5ddb 063d 40a4 6ebc 9de6 7c3d
00000180: 84c0 a2bc 7ddc 20bb 15d8 4ebd 1f21 773d
00000190: 66a0 0ebc 1212 b6bc 97ae 6c3c 1e38 863d
000001a0: 9aae ae3c da8f 893d 7609 203d 6dec 833d
000001b0: 0d8e bc3c 473b 8d3d 4280 74bd d095 a43c
000001c0: aa5c 9f3d dca4 2f3d c4ef 86bd cdd2 683c
000001d0: b93c 573d 2603 80bd f278 083d 7bb5 0f3d
000001e0: d7e7 20bd 2e48 0fbd d5d8 e5ba b0e4 4dbd
000001f0: 1971 ce3a b1a1 83bc dee3 703c 8eed 353d
00000200: 8837 59bd ff2b 34bd e5e3 32bd 04eb 2e3a
00000210: a202 5fbd 0c27 85bd 7eae 333d d55c 54bd
00000220: 3380 68bd e496 363d d7ed d93c a040 79bd
00000230: d3e3 523b d473 7abc f762 e9bc 566b 97bd
00000240: 3355 893d 8c21 8fbc eae3 13bd 5d18 a0bc
00000250: bb5b 78bd c97d 043d 11a2 6c3d 081c f53c
00000260: d2d7 1d3c 4b2f 0c3d ce9a c6bc 4d67 f0bc
00000270: 2280 38bd 9b8f 11bd 129a 7d3d 3391 d9bb
00000280: 930c 8fbc f168 52bd 8048 5abd 868e 373d
00000290: d969 eb3c eef1 f23c 12cc 013c 130d 433d
000002a0: dfa0 8b3d aa93 b8bc 6b09 2fbd 8706 ecbc
000002b0: 2737 52bd db3b 6fbd af42 2fbd ec89 323d
000002c0: 2bf5 803d 8931 533d e634 c6bc 1bc9 3abd
000002d0: c4c5 4b3c 3807 0e3d 6467 f7bc a84a 783c
000002e0: 17ff 683c 3ddd edbb c8f1 f43c 6a49 a5bc
000002f0: 29fd 1b3b 7fe8 ff3c 40ed a3bc 87da 423d
00000300: 6d08 90ba b6b6 073d 58ed 90bc 5bd5 573d
00000310: f97d 08bd 8082 86bd 5652 0fbd ec78 54bc
00000320: 3640 e83c 2105 243c 8925 373d 7ea1 0cbb
00000330: b758 f9bc 6f7a 7e3c 3aa4 4ebd 9196 3a3c
00000340: d2a4 693d 0713 163d 6c62 e4bb eb16 2fbd
00000350: f837 39bd 8545 163c 3700 273d 03df 023b
00000360: 9aa2 373d 9b7b 123d aa52 163d 7061 433d
00000370: dad4 833d 9a60 debc 98dc 093d 3ac5 343d
00000380: 93bc 353b 138d 603c 60fb 71bc 9953 893c
00000390: 968c 1fbd 32fb 1cbc ec33 6fbd ef17 273d
000003a0: b35b 97bd e1a7 d63b aec6 e2bb bbe1 7abd
000003b0: 8c59 b53c c6f6 0abd 84d8 303b a509 b53c
000003c0: fa2a 06bd e5dd 193d 0156 893d 6fd1 5cbc
000003d0: 5cf5 60bc 139c 5dbc f086 833d 1be1 5dbd
000003e0: 65b2 94bc 4399 683d 68dd 423c 20e3 223c
000003f0: 2c98 a13c b556 3bbd 8f1d 1b3d 399d 023d

block3.conv1.bias f4 [8]
0.02324805 0.0131147085 -0.043791797 0.02352489 -0.059753165 0.027267735 -0.031578373 0.013168103
00000000: b272 be3c 13df 563c 075f 33bd 45b7 c03c
00000010: bcbf 74bd 9660 df3c 5358 01bd 07bf 573c

block3.bn1.weight f4 [8]
1.0108975 1.0007172 1.002444 1.008539 0.9947277 1.0059047 0.9872187 1.002236
00000000: 1765 813f 8017 803f 1650 803f ce17 813f
00000010: 79a6 7e3f 7cc1 803f 5dba 7c3f 4549 803f

block3.bn1.bias f4 [8]
0.006472231 -0.0066119563 0.0017448928 -0.003864555 0.002747512 0.0049543385 -0.008646703 0.01128754
00000000: 0215 d43b 1ca9 d8bb e3b4 e43a 7944 7dbb
00000010: 9a0f 343b 0158 a23b e7aa 0dbc 60ef 383c

block3.bn1.running_mean f4 [8]
-0.15846172 -0.012575461 -0.11233195 -0.018521415 0.057343926 -0.054337643 -0.042156428 0.10288637
00000000: ca43 22be 4e09 4ebc 4b0e e6bd 39ba 97bc
00000010: 77e1 6a3d 2691 5ebd 38ac 2cbd 17b6 d23d

block3.bn1.running_var f4 [8]
1.0905976 2.2395618 0.67578876 1.0600122 0.3609659 0.19738086 1.3740051 2.0929005
00000000: b498 8b3f fb54 0f40 7e00 2d3f 7bae 873f
00000010: 86d0 b83e 351e 4a3e 66df af3f 15f2 0540

block3.conv2.weight f4 [8, 8, 3, 3, 3]
-0.04426551 -0.05141829 -0.008129344 0.022159226 0.052308597 0.023473714 -0.061869394 0.017257238
-0.049790148 -0.050253183 -0.009966051 -0.015327902 0.012802275 -0.05861731 0.029330451 0.0010390972
0.04583439 -0.026827753 -0.06295576 -0.049974598 0.040931817 -0.025226772 0.028737724 0.01612393
0.049983013 0.03697836 0.034354076 0.005954715 0.050454244 0.0056773988 0.02193752 0.055137534
-0.038390096 -0.048914824 -0.023782497 -0.005074959 -0.03345505 -0.066394046 0.012247965 0.005165664
0.040744573 -0.053513456 -0.013580221 -0.04215138 -0.0105436705 -0.05283942 0.00869361 0.047546517
0.061996717 -0.05414507 0.04200945 0.038288806 0.0050573694 -0.04935072 0.055455532 -0.011881123
0.029563956 -0.031284735 0.030316915 -0.027176907 0.04446653 0.060334712 -0.05984202 0.059997562
-0.063753426 0.055426158 -0.017427493 0.0073450883 0.03251435 0.04163773 0.040269587 -0.064066015
-0.04184501 0.039811883 0.03527413 -0.07001461 -0.043609668 -0.015154389 -0.028473647 -0.05362625
0.028776431 -0.02001126 0.020212863 -0.03667215 -0.05291462 0.0010838527 -0.074748516 -0.05170415
-0.07184478 0.026051547 0.07162864 -0.05916528 0.064328305 -0.008573492 0.03318253 0.04711485
-0.056384817 0.012332204 0.0040783696 0.023491513 0.0063252794 0.061608743 -0.052278355 -0.066373035
0.0508295 0.040837426 -0.0089316005 -0.012054497 0.060402334 0.06011557 0.030124752 0.017000182
0.0437213 0.055229966 0.0063745207 0.017603219 -0.007844581 0.046953786 0.007056932 -0.035987623
0.059412923 -0.014281362 -0.020867856 0.0235348 -0.016783899 0.061760798 0.07123589 -0.05689941
0.016724939 0.012466156 0.00628003 0.038109668 -0.03807838 -0.03189434 -0.05327116 0.04902078
-0.059501044 -0.016773075 0.08019821 0.060866 -0.011193352 -0.031501234 -0.041740015 -0.0012837768
-0.01197686 -0.06970798 0.026628427 0.01350724 -0.056334835 0.023909597 0.04926178 0.05102871
-0.055203333 -0.047930278 0.04931949 0.056041963 -0.05914007 0.008113357 -0.016432172 0.0452319
0.03221729 0.071997486 -0.050453603 -0.02811705 -0.026230752 -0.00069096766 -0.0052756555 -0.018808544
-0.059737 -0.022564868 0.038154125 -0.05420672 0.06699964 -0.05367696 0.03482877 0.00783325
0.061681043 0.05567302 0.05519334 -0.019531535 -0.0072406856 0.015342874 0.048795044 -0.05297233
0.05526458 0.058617264 0.020331312 0.008977253 -0.017540682 -0.053096827 0.06793225 0.02569328
0.03314917 -0.056122117 0.02536389 0.008604663 -0.016871354 0.055990964 -0.04082327 0.015494774
-0.033271026 -0.05976225 0.007479194 0.020161685 -0.00925022 -0.024751019 -0.055302814 0.010600248
0.0020679035 0.06610727 0.018136024 -0.019313686 -0.047365118 -0.04652551 -0.052472156 -0.00805052
-0.014783787 0.045397844 -0.024927076 0.050846636 -0.024021784 0.009312669 -0.056568824 0.049414508
-0.039904103 0.03723315 -0.0034320962 0.06722751 -0.06423451 -0.062598415 0.03345425 -0.0620305
-0.034070794 0.008214657 0.020735854 0.0052855616 -0.009848927 -0.036574066 0.0724707 0.011691134
0.017614208 -0.046597928 -0.016742602 0.01273305 0.020186786 0.051869087 0.024176273 -0.041494705
0.0043008574 0.04809686 0.03318361 -0.03145103 -0.07277951 -0.029347192 0.023341056 0.029479736
00000000: c04f 35bd fc9b 52bd f130 05bc 4487 b53c
00000010: 8a41 563d f24b c03c c36a 7dbd 0d5f 8d3c
00000020: c1f0 4bbd 48d6 4dbd a648 23bc e121 7bbc
00000030: a2c0 513c b418 70bd 6a46 f03c 5132 883a
00000040: d7bc 3b3d e0c5 dbbc f3ee 80bd 2ab2 4cbd
00000050: 1fa8 273d 60a8 cebc 606b eb3c 5516 843c
00000060: fdba 4c3d 9f76 173d dcb6 0c3d c51f c33b
00000070: 1ca9 4e3d 7909 ba3b 50b6 b33c e5d7 613d
00000080: ef3e 1dbd e95a 48bd 83d3 c2bc d74b a6bb
00000090: 2a08 09bd 9af9 87bd b0ab 483c bb44 a93b
000000a0: c8e3 263d ed30 5bbd 937f 5ebc eda6 2cbd
000000b0: 5cbf 2cbc 266e 58bd a56f 0e3c 23c0 423d
000000c0: 45f0 7d3d 39c7 5dbd 1a12 2c3d b9d4 1c3d
000000d0: 4ab8 a53b fb23 4abd 5725 633d 0ba9 42bc
000000e0: 1c30 f23c 6c24 00bd 2e5b f83c 1ba2 debc
000000f0: 8922 363d 8821 773d e81c 75bd 01c0 753d
00000100: 2891 82bd 8a06 633d 1ac4 8ebc 11af f03b
00000110: c42d 053d 538c 2a3d b9f1 243d 0b35 83bd
00000120: ac65 2bbd c911 233d 9b7b 103d d263 8fbd
00000130: 0da0 32bd 1d4a 78bc 9141 e9bc 33a7 5bbd
00000140: 8dbc eb3c a7ee a3bc 7295 a53c 8935 16bd
00000150: 00bd 58bd 1010 8e3a c015 99bd bbc7 53bd
00000160: 5b23 93bd 0e6a d53c 09b2 923d 4b57 72bd
00000170: 8fbe 833d d577 0cbc 68ea 073d 80fb 403d
00000180: c4f3 66bd 030d 4a3c d8a3 853b 4671 c03c
00000190: 4a44 cf3b 7359 7c3d d421 56bd 96ee 87bd
000001a0: 9832 503d 2545 273d d955 12bc 3a80 45bc
000001b0: 7068 773d be3b 763d 2fc8 f63c f743 8b3c
000001c0: 1b15 333d d138 623d 5be1 d03b a034 903c
000001d0: 8f86 00bc 9d52 403d d63d e73b c267 13bd
000001e0: f75a 733d 60fc 69bc 11f3 aabc 0ecc c03c
000001f0: 637e 89bc e4f8 7c3d 1fe4 913d 5b0f 69bd
00000200: bd02 893c d93e 4c3c b6c8 cd3b e218 1c3d
00000210: 13f8 1bbd a4a3 02bd dc32 5abd 03ca 483d
00000220: 5eb7 73bd b067 89bc f63e a43d a04e 793d
00000230: 5264 37bc 7007 01bd 94f7 2abd 6744 a8ba
00000240: 983a 44bc 0fc3 8ebd dc23 da3c 794d 5d3c
00000250: 5bbf 66bd 0fde c33c b8c6 493d 7b03 513d
00000260: e41c 62bd 8a52 44bd 3c03 4a3d 428c 653d
00000270: dc3c 72bd e3ed 043c c39c 86bc 1645 393d
00000280: 47f6 033d 6b73 933d 70a8 4ebd ba55 e6bc
00000290: e0e1 d6bc 0e22 35ba 68df acbb 6014 9abc
000002a0: c9ae 74bd f5d9 b8bc 8047 1c3d de07 5ebd
000002b0: 1b37 893d 5fdc 5bbd 9da8 0e3d 0857 003c
000002c0: 43a5 7c3d 6509 643d 6912 623d 9900 a0bc
000002d0: 4643 edbb ae60 7b3c 50dd 473d 84f9 58bd
000002e0: 1d5d 623d a818 703d da8d a63c 5415 133c
000002f0: 7ab1 8fbc 0f7c 59bd 1020 8b3d b77a d23c
00000300: 6dc7 073d 4ee0 65bd efc7 cf3c 93fa 0c3c
00000310: cb35 8abc c856 653d 4d36 27bd cbdd 7d3c
00000320: 3347 08bd 43c9 74bd 0714 f53b 1e2a a53c
00000330: 3c8e 17bc a6c2 cabc 3485 62bd aaac 2d3c
00000340: aa85 073b 4063 873d 0092 943c bc37 9ebc
00000350: ed01 42bd 8891 3ebd 0bed 56bd 54e6 03bc
00000360: b237 72bc 17f3 393d de33 ccbc 9044 503d
00000370: 55c9 c4bc 2a94 183c b6b4 67bd de66 4a3d
00000380: 7c72 23bd ca81 183d 05ed 60bb 94ae 893d
00000390: 628d 83bd 9933 80bd 5307 093d b213 7ebd
000003a0: d18d 0bbd c596 063c 3dde a93c 8132 ad3b
000003b0: 655d 21bc b0ce 15bd 856b 943d 2c8c 3f3c
000003c0: ac4b 903c 78dd 3ebd c827 89bc 489e 503c
000003d0: c25e a53c ae74 543d 520d c63c 5af6 29bd
000003e0: 35ee 8c3b 3701 453d 89eb 073d ccd2 00bd
000003f0: 6c0d 95bd 8669 f0bc be35 bf3c 7d7f f13c

block3.conv2.bias f4 [8]
0.030671211 0.06437102 -0.0441304 0.00092019996 0.062358867 0.019623166 0.03157414 -0.06479679
00000000: 3142 fb3c f4d4 833d 14c2 34bd 9339 713a
00000010: 036c 7f3d c3c0 a03c e353 013d 2eb4 84bd

block3.bn2.weight f4 [8]
0.99244386 1.0006535 0.9988328 1.002306 0.99157494 1.0140629 0.99243546 1.0026494
00000000: cd10 7e3f 6a15 803f 82b3 7f3f 904b 803f
00000010: dbd7 7d3f d0cc 813f 4010 7e3f d156 803f

block3.bn2.bias f4 [8]
-0.01259575 -0.009888413 -0.009292337 0.013743043 -0.0056367717 -0.00014412092 0.006520866 -0.0080836965
00000000: 685e 4ebc 0303 22bc e33e 18bc 802a 613c
00000010: abb4 b8bb 2a1f 17b9 fdac d53b 7b71 04bc

block3.bn2.running_mean f4 [8]
0.012472933 0.14674322 0.13528068 -0.05443005 -0.13930458 0.014840284 -0.010723498 0.5390915
00000000: 465b 4c3c db43 163e 0587 0a3e 0bf2 5ebd
00000010: dca5 0ebe aa24 733c 9cb1 2fbc e701 0a3f

block3.bn2.running_var f4 [8]
0.35519683 1.0651311 0.4329642 0.72635305 0.3401554 0.8215442 0.18271519 0.58837163
00000000: 5cdc b53e 3756 883f 7cad dd3e 46f2 393f
00000010: d928 ae3e b850 523f b119 3b3e 869f 163f

block4.conv1.weight f4 [8, 8, 3, 3, 3]
-0.051625814 0.009203185 -0.059272934 -0.0011124801 -0.049458813 -0.025611201 -0.033140816 -0.003774661
-0.008934953 -0.030448448 -0.070177674 0.013211496 0.017295063 0.05284375 -0.0016114397 -0.057318047
0.051723294 0.046483785 0.039779004 -0.01650832 -0.022141518 -0.055287037 -0.0144839315 0.01327766
0.010318267 0.0400019 0.061229657 0.028127247 -0.026804779 0.06408626 0.0556712 0.037223592
-0.05541584 5.574256e-05 0.013635424 0.034950882 -0.0076685944 -0.031663727 0.039745353 -0.035647284
-0.013666962 0.030050354 -0.032789994 -0.012956295 0.042166457 -0.0128455125 -0.055944238 0.06290601
0.04291213 -0.032945555 0.03308251 0.029533856 -0.034784473 -0.03267809 -0.04575327 -0.0104029
-0.043481644 0.062453862 0.04932241 0.020217992 -0.06581464 0.053908188 0.020338506 -0.06608658
-0.060599722 0.010621895 0.042494703 -0.018186532 0.066459 -0.066420704 0.05003945 -0.014629728
0.028546313 -0.024634127 -0.0057195122 -0.038297098 0.020235518 0.06554705 0.0045164567 0.07121683
0.06347191 0.010563129 -0.05266363 -0.036029175 -0.045735404 -0.056695525 -0.049423844 0.03155888
-0.012854342 -0.06340762 -0.057756707 0.07365792 0.070855886 0.0025302528 -0.058387738 0.043877207
0.02389479 -0.008202079 -0.020466167 0.054397475 0.04678586 0.049340364 0.02326386 -0.06022573
0.015896171 -0.0022417589 0.03513536 0.026308082 -0.051630713 0.04221412 -0.007671316 -0.028475424
0.05387367 0.03455798 0.013392913 0.0093482975 0.0650548 -0.07312481 0.020772394 -0.049126625
-0.00700286 -0.022770643 0.048235744 -0.016227014 -0.0028811663 0.04374929 -0.031391114 0.053330302
-0.0337578 -0.06643417 0.051329646 0.01652312 0.0036245394 0.02055857 0.026081275 0.031376082
-0.05735655 -0.0013134627 -0.0748019 -0.029990977 -0.07014585 0.034613017 -0.070025325 -0.008308481
-0.015229437 0.051722154 0.03734674 -0.036724944 0.06371393 -0.06110616 -0.02092961 0.005704894
-0.007514618 -0.034102984 -0.032556996 -0.051464725 -0.044829845 -0.03259139 -0.07009918 -0.015518362
-0.009634103 -0.039298784 -0.043837205 -0.0071855555 0.01838771 -0.025095526 -0.045799185 0.07821227
0.058785103 0.03334746 -0.028029175 0.006800308 0.032618556 0.04977099 -0.055972397 0.015790198
-0.05332458 -0.034972165 -0.0018221649 0.031031467 0.006316689 0.049120825 -0.047473792 -0.0140812
-0.019926822 -0.0004282009 0.06555686 -0.04677895 0.05142234 0.053205203 -0.046321426 -0.05570923
-0.0050656456 0.024739081 -0.015463845 0.045622483 -0.043998767 0.027989944 0.06948012 0.0386395
0.010091937 0.013955334 0.02714535 0.06304999 -0.048452035 0.04151123 -0.03306367 0.024213802
0.053051993 -0.03665705 0.021265801 0.059140697 -0.011395772 0.044080053 0.05929958 0.04028983
0.015095925 -0.015792107 0.07546288 0.037848674 0.045357205 0.05571366 0.074224725 -0.04886518
0.062471285 -0.0037414865 0.009224226 0.0039986037 -0.05120128 -0.03248952 -0.023762958 -0.052366897
0.036169007 0.026368152 0.059507642 -0.029884389 -0.0063001984 -0.024431894 0.022229966 0.04755765
0.04907207 -0.048186727 0.021305624 0.027094545 -0.019942917 0.042460594 -0.028994665 0.010724216
0.0018076749 -0.067071415 -0.025993275 0.029820612 -0.00033732085 0.051352736 0.0059334436 -0.048158772
00000000: 9775 53bd f5c8 163c 2dc8 72bd a3d0 91ba
00000010: 5395 4abd 95ce d1bc aabe 07bd 4e60 77bb
00000020: e963 12bc 066f f9bc 50b9 8fbd 0875 583c
00000030: 60ae 8d3c b072 583d f236 d3ba 54c6 6abd
00000040: cedb 533d c865 3e3d 4fef 223d 753c 87bc
00000050: 2162 b5bc a974 62bd 034e 6dbc 8b8a 593c
00000060: f30d 293c 08d9 233d f3cb 7a3d 1d6b e63c
00000070: b295 dbbc a83f 833d 7c07 643d c477 183d
00000080: b8fb 62bd 1ecd 6938 1d67 5f3c a828 0f3d
00000090: d548 fbbb d3b1 01bd 06cc 223d e302 12bd
000000a0: 65eb 5fbc 292c f63c cd4e 06bd a446 54bc
000000b0: bcb6 2c3d fc75 52bc c925 65bd ded4 803d
000000c0: a1c4 2f3d ebf1 06bd 8781 073d fcf0 f13c
000000d0: 2a7a 0ebd 76d9 05bd c867 3bbd ed70 2abc
000000e0: cf19 32bd 9fcf 7f3d 4c06 4a3d 34a0 a53c
000000f0: d3c9 86bd d5ce 5c3d f09c a63c 6758 87bd
00000100: 6a37 78bd 7507 2e3c ed0e 2e3d ecfb 94bc
00000110: a81b 883d 9407 88bd 2bf6 4c3d 87b1 6fbc
00000120: f5d9 e93c 82cd c9bc bf6a bbbb 6bdd 1cbd
00000130: f5c4 a53c 883d 863d c9fe 933b 21da 913d
00000140: 90fd 813d f910 2d3c d2b5 57bd 5493 13bd
00000150: 0c55 3bbd 9139 68bd a870 4abd e243 013d
00000160: 059b 52bc dbdb 81bd 4c92 6cbd f7d9 963d
00000170: e41c 913d 99d2 253b fb27 6fbd 96b8 333d
00000180: 02bf c33c 0362 06bc aaa8 a7bc e3cf 5e3d
00000190: 88a2 3f3d 1f19 4a3d da93 be3c 41af 76bd
000001a0: b038 823c 79ea 12bb 18ea 0f3d 0c84 d73c
000001b0: ba7a 53bd b7e8 2c3d aa5f fbbb 4b45 e9bc
000001c0: a3aa 5c3d ab8c 0d3d f36d 5b3c 9a29 193c
000001d0: 733b 853d 76c2 95bd de2a aa3c 0039 49bd
000001e0: 3f78 e5bb 8089 babc d892 453d 84ee 84bc
000001f0: f3d1 3cbb 7532 333d f893 00bd e070 5a3d
00000200: 9e45 0abd a30e 88bd 093f 523d 7f5b 873c
00000210: ae89 6d3b 726a a83c 66a8 d53c 3584 003d
00000220: b4ee 6abd 7f28 acba bd31 99bd a3af f5bc
00000230: a1a8 8fbd 61c6 0d3d 7069 8fbd 4c20 08bc
00000240: e384 79bc 9cda 533d e5f8 183d e56c 16bd
00000250: 737c 823d 744a 7abd 9374 abbc 1ff0 ba3b
00000260: 2f3d f6bb 92af 0bbd 7c5a 05bd adcc 52bd
00000270: 809f 37bd 8d7e 05bd 2990 8fbd ba40 7ebc
00000280: 5bd8 1dbc c3f7 20bd a48e 33bd cf74 ebbb
00000290: d3a1 963c 2295 cdbc ed97 3bbd c12d a03d
000002a0: a6c8 703d 5997 083d 719d e5bc 1ed5 de3b
000002b0: 099b 053d aadc 4b3d 5043 65bd 725a 813c
000002c0: e06a 5abd f93e 0fbd b5d5 eeba b435 fe3c
000002d0: 3afc ce3b eb32 493d e173 42bd d5b4 66bc
000002e0: 933d a3bc 2780 e0b9 ad42 863d 499b 3fbd
000002f0: 3ba0 523d b3ed 593d 89bb 3dbd 5d2f 64bd
00000300: b7fd a5bb 9da9 ca3c 115c 7dbc a4de 3a3d
00000310: 0d38 34bd 2b4b e53c 984b 8e3d 7444 1e3d
00000320: a758 253c eaa4 643c ed5f de3c 5a20 813d
00000330: a475 46bd ae07 2a3d c56d 07bd 065c c63c
00000340: 0c4d 593d b425 16bd 9e35 ae3c 843d 723d
00000350: 55b5 3abc 498d 343d 1ee4 723d f306 253d
00000360: e654 773c 735e 81bc 488c 9a3d 3607 1b3d
00000370: 7ac8 393d 0234 643d 2203 983d db26 48bd
00000380: e4e1 7f3d ba33 75bb 3521 173c b806 833b
00000390: 6fb8 51bd bb13 05bd 89aa c2bc ac7e 56bd
000003a0: f425 143d 0602 d83c 49be 733d 1bd0 f4bc
000003b0: e571 cebb 6525 c8bc 9e1b b63c cfcb 423d
000003c0: cbff 483d 725f 45bd 2289 ae3c 61f5 dd3c
000003d0: 545f a3bc 29eb 2d3d 3886 edbc 9fb4 2f3c
000003e0: 81ef ec3a bd5c 89bd d9ef d4bc 5b4a f43c
000003f0: 70da b0b9 3f57 523d 556d c23b 2242 45bd

block4.conv1.bias f4 [8]
0.0306176 -0.06618308 -0.0047640027 -0.026535708 -0.061270323 0.025184691 -0.025072027 -0.04014411
00000000: c3d1 fa3c ff8a 87bd 5a1b 9cbb 6a61 d9bc
00000010: 97f6 7abd 2050 ce3c da63 cdbc 266e 24bd

block4.bn1.weight f4 [8]
0.995796 1.0169061 1.0057456 0.9952595 0.9922485 1.0030708 0.99051625 0.99963236
00000000: 7dec 7e3f fb29 823f 46bc 803f 54c9 7e3f
00000010: ff03 7e3f a064 803f 7992 7d3f e8e7 7f3f

block4.bn1.bias f4 [8]
0.0019638368 0.01586187 0.0043543326 0.0045540375 0.0017279581 0.0012650671 0.00523792 -0.002845899
00000000: b7b3 003b c1f0 813c caae 8e3b 093a 953b
00000010: a77c e23a 9cd0 a53a dca2 ab3b 4382 3abb

block4.bn1.running_mean f4 [8]
0.28903526 -0.19870488 -0.14474922 0.24085349 0.011121386 -0.272772 0.2842085 0.08483156
00000000: 6efc 933e 4b79 4bbe 2439 14be 4ca2 763e
00000010: 7936 363c c6a8 8bbe c783 913e 2bbc ad3d

block4.bn1.running_var f4 [8]
1.8651662 4.9380264 3.6174006 2.8987014 2.5537674 4.7890353 1.7027714 3.1647675
00000000: c4bd ee3f 5004 9e40 7e83 6740 5384 3940
00000010: ed70 2340 c73f 9940 6af4 d93f 8d8b 4a40

block4.conv2.weight f4 [8, 8, 3, 3, 3]
-0.03761227 0.013524971 -0.047756616 -0.021426283 -0.042236574 0.054199386 -0.012252796 -0.05475004
0.022387302 -0.00093291583 -0.06703904 0.025121212 -0.061948672 -0.042742167 0.054088645 0.06407783
-0.006717654 0.005266425 0.051164526 0.026674414 0.00059088774 -0.020635208 -0.0021029636 0.008786191
-0.013326044 0.018219309 0.031950008 -0.050353177 -0.053970415 -0.025802659 -0.0098472955 0.011493981
-0.025399446 -0.030566389 -0.03681731 -0.06010474 0.0004476426 -0.05148307 0.06513825 -0.0584987
0.008371016 -0.036877558 0.05708876 0.009044645 -0.041194614 -0.062446907 -0.023169123 0.030913647
0.051524054 -0.056958284 0.0067110076 -0.06842709 -0.0292455 -0.014847087 -0.034229554 0.049348284
0.021214107 -0.034412883 0.015969606 -0.037913796 0.027415538 0.02709566 -0.014606474 0.025287893
0.018637026 0.03056683 -0.0047506117 0.045110367 -0.025235808 0.019667216 0.06571112 -0.044090807
0.018983584 0.00015698411 -0.019477399 0.05066365 -0.026627839 -0.008142496 -0.03554288 -0.039891515
-0.06395768 0.00295305 0.023288254 -0.059082817 -0.07014153 -0.022573244 0.019199016 -0.073313236
-0.06487544 -0.06849887 0.04729614 -0.023630204 -0.015021073 0.06749392 0.012441702 0.014728125
-0.04136458 -0.052779436 0.03874663 0.037919443 0.02196317 0.03908846 0.039996102 -0.028184703
0.031597275 -0.009272097 0.008347893 -0.024485424 0.020570371 -0.004844347 -0.0546603 -0.035283186
-0.006528059 -0.055386458 -0.013128372 0.027369881 -0.03754612 0.039025135 0.07268873 0.0495421
-0.0037311802 0.0067979842 -0.0051271855 0.05525979 0.007957603 -0.00091378763 0.015341416 -0.015903054
0.018593207 0.0066048373 0.019414827 -0.020493135 0.03911882 -0.034793388 -0.023353724 0.019709755
-0.06482864 -0.021221198 0.063357085 0.03839236 -0.016410993 -0.04864886 0.0066679893 0.047382314
-0.07313519 -0.0061608255 0.028653828 0.05474151 0.034894317 -0.07328647 0.052312486 0.047550403
0.013394923 0.062485863 0.07816674 -0.003991062 -0.026601896 0.07647774 0.001180682 0.0014321988
0.00051652157 -0.032604158 0.053537555 0.016397858 0.032825347 -0.034152392 0.016172044 -0.054788414
-0.05067238 -0.0022186222 -0.0015174784 0.013059412 0.037451897 0.050002012 -0.0021539258 0.052732542
-0.029851617 0.0662172 -0.05281705 -0.06740802 -0.044002544 -0.009577448 0.063732296 -0.058256306
0.047912702 0.065530546 -0.029379612 0.023155948 0.008582603 0.017134054 -0.023735356 0.008546485
0.058665697 -0.019428024 -0.06216829 0.05935273 0.0064928727 0.0040191715 0.05471813 0.044996418
0.026061049 -0.047077212 0.04804715 -0.011074584 -0.041146953 0.04828373 -0.059265412 0.0047998545
-0.0494107 -0.025219116 -0.0029615557 -0.03297147 0.051499326 0.06975463 -0.04301001 0.0016357141
0.029405609 -0.0015301974 0.029458772 0.034810252 -0.024975756 0.051891506 0.03609321 -0.020835375
-0.055119704 0.039111454 -0.048102316 0.029725317 -0.0100343255 0.019007584 -0.0008102819 0.052992858
-0.016901746 0.036830895 0.0014092005 0.05455942 0.02648975 0.070102744 -0.015372656 0.009258987
-0.03394968 -0.01749209 -0.061835673 -0.06464412 0.0060567255 -0.049333505 -0.010892154 -0.030529726
0.061290544 -0.0058976123 -0.068028 0.017729787 -0.054009076 0.009768918 0.012672268 0.0633013
00000000: 530f 1abd d797 5d3c 719c 43bd 2c86 afbc
00000010: 4200 2dbd 2d00 5e3d f4bf 48bc 9441 60bd
00000020: 9365 b73c ec8e 74ba c44b 89bd 00cb cd3c
00000030: e4bd 7dbd 6912 2fbd 0e8c 5d3d 3d3b 833d
00000040: c41f dcbb fa91 ac3b e591 513d 4d84 da3c
00000050: cee5 1a3a 2b0b a9bc e0d1 09bb f5f3 0f3c
00000060: 7b55 5abc a940 953c 03de 023d 223f 4ebd
00000070: 1510 5dbd 1960 d3bc 8d56 21bc 4051 3c3c
00000080: 8012 d0bc 5d66 fabc bfcd 16bd 6330 76bd
00000090: 93b1 ea39 e9df 52bd 3467 853d 559c 6fbd
000000a0: 9626 093c ec0c 17bd e7d5 693d fe2f 143c
000000b0: afbb 28bd 54c8 7fbd 2ccd bdbc 9e3e fd3c
000000c0: e30a 533d 174d 69bd 03e8 db3b 8123 8cbd
000000d0: 4294 efbc 3241 73bc 4a34 0cbd 6d21 4a3d
000000e0: 35c9 ad3c 86f4 0cbd b1d2 823c 7f4b 1bbd
000000f0: 8d96 e03c b8f7 dd3c fe4f 6fbc 8e28 cf3c
00000100: adac 983c 4a67 fa3c 05ab 9bbb a6c5 383d
00000110: 53bb cebc 241d a13c 8d93 863d 9098 34bd
00000120: 7683 9b3c 1a9c 2439 118f 9fbc b084 4f3d
00000130: a022 dabc 1b68 05bc 6995 11bd 4965 23bd
00000140: 3efc 82bd f587 413b 02c7 be3c d300 72bd
00000150: 5da6 8fbd 86eb b8bc 4147 9d3c 4025 96bd
00000160: 6add 84bd 2349 8cbd 99b9 413d 2194 c1bc
00000170: f21a 76bc 413a 8a3d 48d8 4b3c 3c4e 713c
00000180: e86d 29bd 402f 58bd c9b4 1e3d 6b51 1b3d
00000190: 1bec b33c 391b 203d f4d2 233d 9be3 e6bc
000001a0: 256c 013d fee9 17bc 9ac5 083c a895 c8bc
000001b0: 3283 a83c 54bd 9ebb 7be3 5fbd 1a85 10bd
000001c0: 54e9 d5bb e9dc 62bd 6218 57bc cd36 e03c
000001d0: f6c9 19bd d2d8 1f3d d4dd 943d a8ec 4a3d
000001e0: d186 74bb a0c1 de3b f301 a8bb 1758 623d
000001f0: 9b60 023c 408b 6fba 905a 7b3c 1f47 82bc
00000200: c850 983c 646d d83b d80b 9f3c 38e1 a7bc
00000210: 0e3b 203d 8383 0ebd 4f50 bfbc 5a76 a13c
00000220: e1c4 84bd 14d8 adbc 5cc1 813d 4f41 1d3d
00000230: 5970 86bc 0744 47bd 267f da3b f513 423d
00000240: e7c7 95bd c0e0 c9bb 6fbb ea3c a238 603d
00000250: 58ed 0e3d 3717 96bd 9e45 563d 36c4 423d
00000260: 6176 5b3c 2df1 7f3d e215 a03d 74c7 82bb
00000270: 38ec d9bc 5da0 9c3d 1dc1 9a3a 9eb8 bb3a
00000280: 2d67 073a f08b 05bd 324a 5b3d cd54 863c
00000290: df73 063d 61e3 0bbd 3c7b 843c d169 60bd
000002a0: d78d 4fbd 4e66 11bb 20e6 c6ba 25f7 553c
000002b0: 2967 193d e9ce 4c3d e128 0dbb 14fe 573d
000002c0: 618b f4bc e29c 873d b156 58bd 370d 8abd
000002d0: 033c 34bd baea 1cbc 1486 823d 2a9e 6ebd
000002e0: 1c40 443d e134 863d 83ad f0bc 8bb1 bd3c
000002f0: 0c9e 0c3c b75c 8c3c a670 c2bc 8e06 0c3c
00000300: 714b 703d 8527 9fbc 2da4 7ebd d91b 733d
00000310: 2ac2 d43b 41b3 833b 1e20 603d 2a4e 383d
00000320: fb7d d53c 09d4 40bd 17cd 443d 2c72 35bc
00000330: b589 28bd 29c5 453d 4ac0 72bd 1948 9d3b
00000340: e062 4abd 5298 cebc a916 42bb 180d 07bd
00000350: f5f0 523d 84db 8e3d 442b 30bd 7565 d63a
00000360: 08e4 f03c e890 c8ba 8653 f13c 3295 0e3d
00000370: f599 ccbc 308c 543d 79d6 133d f3ae aabc
00000380: 33c5 61bd 5533 203d ef06 45bd 8282 f33c
00000390: 0367 24bc cbb5 9b3c 1969 54ba 0a0f 593d
000003a0: 8875 8abc fedb 163d ecb4 b83a b379 5f3d
000003b0: 0801 d93c 0792 8f3d 98dd 7bbc 02b3 173c
000003c0: d20e 0bbd 924b 8fbc 6747 7dbd 2364 84bd
000003d0: 7f77 c63b ee11 4abd 0175 32bc 7a19 fabc
000003e0: cb0b 7b3d c240 c1bb 4452 8bbd 0f3e 913c
000003f0: 9f38 5dbd d00d 203c 589f 4f3c 1da4 813d

block4.conv2.bias f4 [8]
0.05938244 -0.014465902 0.042496517 0.0018984508 0.047003772 0.05114908 0.010174439 0.05549465
00000000: 003b 733d 6402 6dbc d410 2e3d 70d5 f83a
00000010: 0787 403d b381 513d b1b2 263c 5c4e 633d

block4.bn2.weight f4 [8]
0.9905207 0.9982592 1.0001298 1.0166894 1.0064719 1.0135763 0.99338406 0.9926005
00000000: c492 7d3f ea8d 7f3f 4104 803f e122 823f
00000010: 12d4 803f debc 813f 6b4e 7e3f 111b 7e3f
